LibSherpaKwsModel/src/main/assets/sherpa-onnx-kws-zipformer-wenetspeech-3.3M-2024-01-01/decoder-epoch-12-avg-2-chunk-16-left-64.int8.onnx (onnx, 181069 bytes, 4 tensors)

decoder.conv.weight f4 [320, 4, 2]
000000 bf 46 c4 3e fe c6 8d 40 46 7b e5 bd 1e 05 ae bf
       0.38335225 4.430541 -0.11205153 -1.3595312
000010 96 30 8c 40 07 92 27 3f f1 85 ee 3c e5 2b 43 3f
       4.380931 0.65457195 0.029116603 0.7623885
000020 b9 b5 45 3f 40 4a 0c 40 51 58 3b c0 74 d5 8a bf
       0.7723041 2.1920319 -2.9272654 -1.0846391
000030 20 d6 b9 be dd 75 67 40 9b 7a cb 3e 2b a8 2b 40
       -0.36296177 3.6165688 0.39741978 2.6821392
000040 43 d2 18 3f 1b 25 1e be 73 d1 77 3d 5d 5f 7c bf
       0.59695834 -0.15443842 0.06050248 -0.9858301
000050 af 8c 34 3f b2 a3 41 3f 63 71 75 3f f5 42 a1 3f
       0.70527166 0.75640404 0.9587614 1.2598559
000060 28 e3 c7 3f 61 ef a1 3f 75 b0 a2 bc c4 fe f2 bf
       1.5616198 1.2651178 -0.019859532 -1.8983998
000070 6e 31 53 3e a3 1b 24 40 41 d9 34 bf 97 d2 17 bf
       0.20624325 2.5641868 -0.70644003 -0.5930571
000080 dc 44 27 3f 6e 28 91 3f 35 5b b7 bf 99 5e 15 3f
       0.65339446 1.1340463 -1.4324709 0.5834747
000090 72 e8 2f be 5d 01 d6 3e 6c 61 24 bf 00 54 c7 bf
       -0.17178515 0.41797915 -0.64211154 -1.557251
0000a0 b1 b9 23 bf 5a 99 11 3f ee d0 b0 be cb 7a 10 bf
       -0.6395522 0.5687462 -0.345344 -0.5643737
0000b0 17 5d d4 3f 99 7b f2 3f 14 c6 a7 bd 90 2e 1b c0
       1.6590909 1.8943969 -0.08192077 -2.424717
0000c0 f4 d1 14 3e c9 a3 98 3e 80 35 18 3f 0f db 74 be
       0.14533216 0.29812458 0.59456635 -0.23911689
0000d0 6f c3 fe be ef 80 50 3f 4f d8 9d bf b2 08 32 c0
       -0.4975848 0.8144674 -1.2331637 -2.7817807
0000e0 0e f0 0d bf 7c 2e e0 3f e9 e7 c0 3d 7a 52 a1 3f
       -0.5544442 1.7514186 0.09419233 1.2603295
0000f0 c3 41 6c 3e b5 f1 bb 3f 93 7a c3 bf d9 2b 3c c0
       0.23071961 1.4683138 -1.5271782 -2.9401762
000100 a7 78 be 3d 3e c6 13 40 78 5b 63 bd d7 9a b2 bf
       0.09300356 2.3089747 -0.055507153 -1.3953503
000110 fd 6b 65 3e d7 d6 5b be 6a ec 72 40 8f 46 f9 3f
       0.22404476 -0.21468674 3.7956796 1.9474658
000120 04 db 10 bd e3 29 28 bf f8 e5 e6 be 67 90 38 c0
       -0.03536512 -0.65688914 -0.45097327 -2.8838136
000130 4f 8b 26 3d 2d b7 c7 3f 9e 2b 3e 3f e6 51 e2 40
       0.0406602 1.5602776 0.74285305 7.0724974
000140 09 60 34 3f 1c 2f e7 3d 78 5c 46 3f 20 a6 28 c0
       0.7045904 0.11288282 0.77484846 -2.6351395
000150 25 64 48 c0 40 36 d0 bf 36 ed 0a 3f b6 a5 b6 40
       -3.1311123 -1.6266556 0.54268205 5.7077284
000160 b8 d1 28 3f 83 0e 7d bd 56 23 02 c0 2c a8 4d bf
       0.65945005 -0.061781418 -2.0334067 -0.80334735
000170 84 b6 62 3b be 7f 07 c0 8c 35 d4 3e e8 7e b2 3f
       0.003459365 -2.1171718 0.41447103 1.3944979
000180 19 31 99 3e bd b7 54 bf 22 a4 ed 3f 7f 12 b6 3f
       0.2992027 -0.8309286 1.8565714 1.4224395
000190 2a 46 5e bf fe 7f 12 c0 f4 24 d5 3c f8 ca e1 3e
       -0.8682581 -2.289062 0.026018597 0.44100165
0001a0 ee e6 c6 bf 99 a8 be bf e1 9a a3 3f 34 4f 06 3e
       -1.5539224 -1.4895202 1.278164 0.13116151
0001b0 29 0b a7 be 61 94 6c bf 39 4e 8c 3e 33 4e 47 40
       -0.32625702 -0.9241391 0.2740343 3.114148
0001c0 53 73 59 bf 00 42 3f bf af 3a fa 3f 25 5d 61 bf
       -0.84941596 -0.74710083 1.9549159 -0.8803275
0001d0 f0 3d 08 c0 52 23 34 c0 f2 5a bf 3f 51 ff a5 3f
       -2.1287804 -2.8146558 1.4949629 1.2968541
0001e0 93 2f 8d bd 9e 69 1d 3f 9a 1a a7 3f 3b 52 f0 3e
       -0.0689384 0.61489284 1.3054993 0.46937737
0001f0 f0 03 87 3e b3 34 c0 bf 07 85 b5 3f 87 87 f4 3f
       0.26370192 -1.5016083 1.4181222 1.910386
000200 2e 8b a0 bc a5 94 cf 3e d7 6f d6 be 5c 56 ca 3f
       -0.019597616 0.40543094 -0.41882202 1.5807605
000210 7b c2 a0 be d0 ae 84 be 1c b6 f9 3f db 6e 46 40
       -0.31398377 -0.2591462 1.95087 3.100516
000220 da 4d 16 40 ad 2d ce 3f fe cc 80 3f e9 3a c7 3e
       2.3485017 1.6107689 1.0062559 0.38912132
000230 42 6c 81 3f 81 26 c6 3f 5d 1a b2 3f 29 b9 25 40
       1.0111163 1.54805 1.3914295 2.5894263
000240 4d c4 1a 40 6c 0e 25 3e 94 30 b2 3f 4b 77 75 40
       2.4182312 0.16118783 1.3921075 3.835406
000250 c1 61 40 bf 2d 7d 26 bf d4 45 b4 3f 59 ee 6d 3e
       -0.7514916 -0.65034753 1.408381 0.23235454
000260 41 b8 c0 3e a0 c8 d3 be 6c 6c e4 3f 18 aa 8d 3f
       0.37640575 -0.41364002 1.7845588 1.1067533
000270 8a e4 05 3f e1 e7 be 3f b8 e3 eb 3c 5f 90 fc 3f
       0.5230185 1.4914514 0.028795108 1.9731559
000280 80 c1 f4 bc ea b5 96 3f 5e c0 9d bf 2b bf 3e c0
       -0.029877424 1.1774266 -1.2324331 -2.980418
000290 8b 19 81 3e 6b 03 75 3f c0 fd 68 c0 29 be aa bd
       0.252148 0.9570834 -3.6404877 -0.083370514
0002a0 90 23 67 3f d8 a2 5f bf 4f 0a 75 be 26 a8 3a c0
       0.9028864 -0.87357855 -0.23929714 -2.916513
0002b0 96 47 1a 40 2a 58 e3 3f fe 36 bc be 0d 71 dd be
       2.4106193 1.776128 -0.36760706 -0.43250313
0002c0 f7 46 19 bf 4d 65 57 3d 0b f1 d1 3d a6 58 cd bf
       -0.5987391 0.052586842 0.102510534 -1.6042678
0002d0 d4 7b ff 3f 12 12 f9 bd 2f 60 cc bf 16 11 91 bf
       1.9959664 -0.1216165 -1.5966853 -1.1333339
0002e0 be 1d e4 3e 08 07 40 bf 6e f1 a8 be 0f 8c 42 be
       0.4455394 -0.7501073 -0.32996696 -0.1899874
0002f0 3e 36 cf 3e 12 90 19 40 b1 d7 83 bf 1c d7 39 c0
       0.4047107 2.3994184 -1.0300199 -2.9037542
000300 c6 8b 44 3e 10 f3 86 bf cd 0e ca 3f fb 2c 9e 40
       0.19193944 -1.0542927 1.5785767 4.942991
000310 50 9f 94 bf 8c 2f 92 be 9b e9 1d 3f 7e 47 4d be
       -1.1611118 -0.285519 0.6168458 -0.20046803
000320 2b e0 98 3d 18 57 18 c0 9a a0 9e 3e 87 34 2e 40
       0.07464632 -2.3803158 0.30981904 2.721956
000330 e6 34 f7 bf 3b 29 fd bf 36 20 22 be 97 06 9e 3f
       -1.9313018 -1.9778208 -0.158326 1.2345761
000340 a6 72 2c 3f fa 53 27 bf bc b5 20 40 8c 44 98 3f
       0.6736244 -0.65362513 2.5110922 1.1895919
000350 f9 bd ce 3d 07 26 24 bf f6 36 8b 3f 16 b9 00 40
       0.10094828 -0.64120525 1.0876148 2.0112967
000360 96 10 aa be f7 79 1d be da 07 37 40 39 5e a4 40
       -0.3321578 -0.15378557 2.8598542 5.136502
000370 55 d8 91 bf 78 db 9a be a0 6c 90 3d 21 b1 37 40
       -1.1394144 -0.30245566 0.070519686 2.870186
000380 aa 13 eb be 35 27 ff bf 3b 41 1b c0 0e 7e 0a 3f
       -0.4591344 -1.993384 -2.4258564 0.54098594
000390 51 83 9d be 02 54 4d bf 2f 8e 98 c0 52 80 04 c1
       -0.3076425 -0.8020631 -4.7673564 -8.281328
0003a0 b6 92 c3 3e 5c a6 ab bf 76 78 42 bf ff 43 3e 3f
       0.3819787 -1.3410144 -0.7596506 0.74322504
0003b0 c9 1f 74 bf 0b 30 14 c0 aa e0 38 c0 6c 5c fb be
       -0.95361 -2.3154323 -2.8887124 -0.4909395
0003c0 8e bf be bf bd 22 bb be e0 9c 90 bf 8d 41 98 3e
       -1.4902208 -0.3654994 -1.1297874 0.2973751
0003d0 a1 83 7c bf 38 a1 5e c0 f4 9a a6 bf 2b ee c0 bf
       -0.9863835 -3.47859 -1.3016038 -1.5072683
0003e0 86 77 b8 3e 54 3f b2 3e 1b a6 c4 3e 4c 87 99 bf
       0.3602869 0.3481394 0.38407978 -1.1994414
0003f0 af ca 3c bf 5f 23 c8 bf 0e e9 65 c0 1b 0b b5 bd
       -0.7374677 -1.5635794 -3.5923495 -0.08840009

decoder_proj.bias f4 [320]
000000 73 89 39 3d 85 40 c6 bd 7a 6a 1f bf ba 06 ad be
       0.045297097 -0.09680275 -0.62271845 -0.33794194
000010 ad c8 d0 3c 61 34 3f 3e c4 cb 21 3d 27 1c c9 be
       0.025486315 0.18672325 0.039500967 -0.3927929
000020 fa 24 af bb ac 8a fb bd 34 de 5f 3d 70 5d 7d 3e
       -0.005344984 -0.12282309 0.05465527 0.24742675
000030 7c b0 c5 3d 04 b5 96 3e e9 59 04 bd ae a4 9d 3e
       0.09652802 0.2943498 -0.032312308 0.30789703
000040 d6 1f ec 3e e9 96 c3 3e d6 53 72 be be fd 78 bc
       0.4611804 0.38201073 -0.23664793 -0.015197216
000050 6b 35 61 3e a3 63 17 be 99 61 8f 3e 63 4d ac 3e
       0.21993034 -0.14784102 0.2800415 0.3365279
000060 2c 72 33 be 9f 29 6e 3e a3 b9 ae bd a2 8b 15 be
       -0.17524022 0.23258065 -0.08531501 -0.14604047
000070 eb 52 7c be 8a b6 90 3d 89 f1 93 3c e3 e8 32 be
       -0.24641006 0.070660666 0.018059509 -0.17471652
000080 fd 2b 10 3e 5b ee 54 3e 62 34 ab be d3 6c a3 3e
       0.1407928 0.2079405 -0.33438402 0.31918964
000090 25 2c 24 3e 30 cd 1a 3e d8 38 8e be 51 19 d0 3c
       0.16032465 0.15117335 -0.27777743 0.025402697
0000a0 c5 a3 a8 3d 09 2a 9a be 5f fa 80 bc 3e 7c 91 3c
       0.082343616 -0.30110195 -0.015744386 0.017759439
0000b0 30 3a 46 bd a0 ae 17 be 8c 39 54 3d 1b 88 8c 3e
       -0.048395336 -0.14812708 0.051812693 0.2744759
0000c0 58 bc b7 bc 72 41 0f 3d c7 06 49 be 7c 97 d4 bc
       -0.022428676 0.034974523 -0.19631492 -0.02595114
0000d0 ad 05 84 3b 96 38 14 be 74 cf 35 be 2d 3f ab 3d
       0.004028997 -0.14474711 -0.17754918 0.08361659
0000e0 13 1a 1a 3d 63 3f c5 3e 02 77 05 3e 05 49 11 be
       0.037622523 0.38524923 0.13033679 -0.14188011
0000f0 a5 f4 14 3d 53 b1 01 be 06 47 fa bd f5 33 3f bc
       0.036366124 -0.126653 -0.12220578 -0.011670102
000100 42 97 89 bd db 5b 2a be c7 e7 3f be 02 06 9b 3d
       -0.06718303 -0.16636603 -0.1874076 0.07569505
000110 95 e4 6e 3c bb e7 19 3c 39 a9 f6 3d c7 c6 b2 bd
       0.014580865 0.009393628 0.120439954 -0.0872932
000120 a6 c9 3f be 34 d5 91 bd 66 da a7 bc d5 cf 24 be
       -0.18729267 -0.071207434 -0.020489883 -0.16094907
000130 ed d2 ce bd 89 2c ce bd f4 03 23 3d a3 32 ad 3e
       -0.10098825 -0.10067088 0.039798692 0.33827695
000140 80 6e 65 be 50 e0 38 be 57 9c e4 3d f1 31 94 be
       -0.22405434 -0.18054318 0.11162632 -0.28944352
000150 d6 43 14 be e0 87 b5 be 7c 7f db 3d 51 46 d5 bd
       -0.14479002 -0.35455227 0.10717675 -0.104138024
000160 36 6b ae bd 1c c5 f2 3d 77 00 88 bd c0 c3 26 3e
       -0.085165426 0.11854002 -0.06640714 0.1628561
000170 74 73 5a be 45 84 8e 3d e5 4d 80 be d5 91 b6 bd
       -0.21333104 0.06958822 -0.2505943 -0.08914534
000180 a2 38 ba be ba 33 66 3e f1 4d 7e 3c 34 6d 15 3e
       -0.36371332 0.2248067 0.015521512 0.14592439
000190 89 d8 83 bc 32 a8 0d 3e 37 c5 39 bd 0b 09 60 be
       -0.016094463 0.13833693 -0.045354094 -0.2187845
0001a0 24 9a 04 3d 3b 8b 66 bc f7 95 1f be 3e f9 c3 bc
       0.032373562 -0.014071281 -0.15584551 -0.023922559
0001b0 db 3d 23 3e 64 7b 74 3d d3 0f 17 bd 50 1f 80 3d
       0.15941565 0.059687987 -0.036880326 0.062559724
0001c0 06 82 dc 3c 2f 39 d2 3d 36 8a 4c 3e 8c f5 89 3e
       0.026917469 0.10264813 0.19974598 0.2694515
0001d0 1f b7 5e 3e b6 b5 05 3e a1 92 8f bd 03 d7 16 3e
       0.21749543 0.13057598 -0.07010389 0.14730458
0001e0 47 fc 4a be 40 1d 26 3e 55 29 8a 3e 60 b0 9b be
       -0.19822799 0.16222095 0.2698466 -0.30408
0001f0 cd 44 c0 3a 54 25 de 3d 52 72 f8 3c ed 7a 14 bc
       0.0014668942 0.108469635 0.03032795 -0.009062511
000200 67 9c 3f bd 94 4f b6 3d 1d 57 59 be 2b b4 63 be
       -0.046780016 0.08901897 -0.21224637 -0.22236697
000210 1e bd 32 be c0 b1 07 be 36 48 a6 3e 6d 23 a7 bd
       -0.17454955 -0.132514 0.32476968 -0.08161054
000220 84 ff 5a 3e e1 cf 40 bd e7 4d 06 be 13 a2 82 be
       0.21386534 -0.04707325 -0.13115655 -0.25514278
000230 47 2d d9 bd 01 e2 0a 3e 45 83 b5 be 16 2e 9b bd
       -0.10604339 0.13562776 -0.35451713 -0.075771496
000240 5f 45 a2 3d 17 83 95 bc fa bd 1c bd b6 b6 92 3e
       0.07923388 -0.018250985 -0.038267113 0.28655022
000250 f9 da 21 bd 8a 0a 25 be 65 71 d7 bc c6 41 81 3d
       -0.03951547 -0.16117302 -0.026299188 0.063113734
000260 b8 e8 62 be 27 bf d6 bd b1 90 1a 3e f6 c6 b2 3d
       -0.22159088 -0.10485678 0.15094258 0.08729355
000270 4b ef 94 3e 8c 36 e2 bc e8 0c b6 bd 72 7a 81 be
       0.29088816 -0.0276139 -0.088891804 -0.2528873
000280 ef b2 4e 3e 57 31 e1 3c 0e dd 63 3e 65 2c 49 3d
       0.20185445 0.027489347 0.22252294 0.049114604
000290 30 22 a8 be 96 11 08 bf 70 e8 ae be 45 11 1a bd
       -0.32838583 -0.53151834 -0.3416171 -0.037614126
0002a0 80 4d bd 3d f0 d0 6f be c8 cc 54 bc 93 38 60 3e
       0.092432976 -0.23419547 -0.012988277 0.21896581
0002b0 79 c5 5a be 3d 92 9a be 1a cc 67 3e 3c 40 b6 3c
       -0.21364392 -0.30189696 0.22636452 0.022247426
0002c0 15 03 a4 be eb cd 60 3d f8 fc 2e be f2 9b c4 3d
       -0.320336 0.05488388 -0.17088687 0.09600057
0002d0 c9 19 a3 be 95 da 99 bd 03 7f 95 be fb fe 2a 3e
       -0.3185561 -0.07512394 -0.29198465 0.1669883
0002e0 98 12 ba 3d 04 c1 9d 3e 10 cc a3 be 84 cd 2a be
       0.09085578 0.30811322 -0.31991625 -0.1667996
0002f0 aa e4 c6 3e 64 09 b6 bd 53 f2 2a be c0 ab 8b 3e
       0.38846332 -0.0888851 -0.16694002 0.27279472
000300 68 61 85 3e 0d cf 71 be 89 88 6d bc 91 2b 2c 3e
       0.26050878 -0.2361414 -0.014497885 0.16813494
000310 96 f3 9a 3e a7 1e 16 be 18 6b 60 bd 73 37 d9 bc
       0.30263966 -0.1466013 -0.054789633 -0.026515698
000320 8a 33 64 3e 89 d2 b3 be 30 3f 35 bd d3 9a 01 bd
       0.22285286 -0.35121563 -0.044249713 -0.031641793
000330 f3 98 67 3b 47 02 5e be 1c 0e 37 bd d1 39 8f be
       0.0035338968 -0.21680556 -0.04469119 -0.27973798
000340 da 88 08 3e ad 88 85 3b 8e 1b aa 3e fc 5c e9 3d
       0.13333455 0.004075131 0.33224148 0.113946885
000350 08 f5 de 3d 96 64 b6 bd 99 e0 a4 bd 76 89 f9 bc
       0.1088658 -0.08905904 -0.08050651 -0.030461054
000360 fd b7 84 ba 5f fe 09 bd ba 42 9e bd ed c5 b0 bd
       -0.0010125634 -0.033689853 -0.07727571 -0.08631501
000370 2b 25 03 be ce 5c 2f 3d ad 2f 17 3e 9b 95 6e bd
       -0.12807147 0.042813115 0.1476428 -0.058248144
000380 d3 92 9b bc 15 5e 1c bd 74 10 da 3d dc 27 1d bd
       -0.01899091 -0.03817566 0.106476694 -0.03836809
000390 31 05 53 be 7b 4f 2a 3e fb b9 1c 3e a9 08 eb 3d
       -0.20607449 0.16631882 0.15305321 0.11476261
0003a0 a5 a1 f3 bd eb e9 15 be 30 f5 c1 be 6e e0 c9 bd
       -0.118960656 -0.14640014 -0.37882376 -0.0985726
0003b0 9a 93 fb bd a0 3d a0 be 45 6e ae bd a7 83 0b 3e
       -0.12284012 -0.31297016 -0.08517126 0.1362444
0003c0 6d 9d b5 bd 37 45 49 bd 86 35 9e 3e 56 6e 5c 3c
       -0.08867917 -0.049138274 0.3090021 0.0134540405
0003d0 cd e3 85 3e 23 51 b0 3e b6 d3 0c 3d aa 7d 9e be
       0.2615036 0.34436902 0.03438159 -0.3095525
0003e0 69 98 63 bd 70 98 07 be ba 43 1e 3c a1 06 7c 3d
       -0.05556527 -0.13241744 0.009659702 0.06152976
0003f0 76 4f c1 3d 94 42 f8 bd 41 ae e7 bd ab 1e d1 3c
       0.09438984 -0.12122074 -0.11312533 0.025527319

decoder.embedding.weight_quantized u1 [197, 320]
000000 7f 80 7e 77 7d 84 76 7d 83 7d 8c 7b 82 87 84 7f
       127 128 126 119 125 132 118 125 131 125 140 123 130 135 132 127
000010 7a 7c 76 82 7a 8b 78 7e 87 7f 82 81 81 7d 7d 88
       122 124 118 130 122 139 120 126 135 127 130 129 129 125 125 136
000020 7f 83 7a 7d 88 80 86 82 82 88 89 7d 73 83 85 7f
       127 131 122 125 136 128 134 130 130 136 137 125 115 131 133 127
000030 7d 78 7d 79 7e 83 83 89 79 7c 8b 83 78 8c 7c 79
       125 120 125 121 126 131 131 137 121 124 139 131 120 140 124 121
000040 81 7b 83 7f 7d 7d 7a 7b 7c 80 85 7a 85 79 7d 82
       129 123 131 127 125 125 122 123 124 128 133 122 133 121 125 130
000050 76 83 86 7b 79 79 79 85 87 8c 7e 8c 75 82 81 85
       118 131 134 123 121 121 121 133 135 140 126 140 117 130 129 133
000060 7e 7c 85 78 83 88 81 8a 89 80 7a 81 80 7f 83 73
       126 124 133 120 131 136 129 138 137 128 122 129 128 127 131 115
000070 8c 81 82 80 70 7c 78 7e 8c 7f 73 81 7f 82 7a 8b
       140 129 130 128 112 124 120 126 140 127 115 129 127 130 122 139
000080 86 61 6a 8e 88 7d 80 84 80 89 8a 7b 82 85 75 82
       134 97 106 142 136 125 128 132 128 137 138 123 130 133 117 130
000090 85 7e 7d 7e 81 8d 89 8c 7a 7d 89 86 7b 7c 80 79
       133 126 125 126 129 141 137 140 122 125 137 134 123 124 128 121
0000a0 78 73 85 79 83 80 85 77 89 83 87 83 81 7f 77 84
       120 115 133 121 131 128 133 119 137 131 135 131 129 127 119 132
0000b0 7e 85 7a 8b 7f 83 80 81 80 82 87 7e 86 83 82 79
       126 133 122 139 127 131 128 129 128 130 135 126 134 131 130 121
0000c0 7a 89 80 86 79 7d 84 7c 83 7e 8b 7b 7c 7a 86 80
       122 137 128 134 121 125 132 124 131 126 139 123 124 122 134 128
0000d0 8a 85 77 7d 8b 86 73 84 7e 7f 78 84 86 79 85 81
       138 133 119 125 139 134 115 132 126 127 120 132 134 121 133 129
0000e0 7e 78 81 7f 7a 8b 87 90 86 7e 7f 8a 7f 71 7e 83
       126 120 129 127 122 139 135 144 134 126 127 138 127 113 126 131
0000f0 7f 82 8d 85 7e 80 81 7f 75 83 82 88 7b 83 7e 73
       127 130 141 133 126 128 129 127 117 131 130 136 123 131 126 115

decoder_proj.weight_quantized i1 [320, 320]
000000 ff 02 00 02 ff 00 00 00 00 02 ff 00 02 ff 01 ff
       -1 2 0 2 -1 0 0 0 0 2 -1 0 2 -1 1 -1
000010 fe 00 ff 02 fe ff fe fd 00 01 00 00 01 00 01 fe
       -2 0 -1 2 -2 -1 -2 -3 0 1 0 0 1 0 1 -2
000020 00 02 fe ff fe ff fe fc fe ff ff 00 00 02 ff 00
       0 2 -2 -1 -2 -1 -2 -4 -2 -1 -1 0 0 2 -1 0
000030 ff 00 00 01 ff 02 00 02 00 ff 02 ff fe 03 00 00
       -1 0 0 1 -1 2 0 2 0 -1 2 -1 -2 3 0 0
000040 01 00 ff 00 00 00 01 03 00 00 00 fe 00 01 ff 07
       1 0 -1 0 0 0 1 3 0 0 0 -2 0 1 -1 7
000050 f9 00 01 ff ff 00 fd 01 00 ff fe 02 00 00 00 00
       -7 0 1 -1 -1 0 -3 1 0 -1 -2 2 0 0 0 0
000060 00 02 03 00 03 ff 01 fd 00 01 00 03 00 01 00 01
       0 2 3 0 3 -1 1 -3 0 1 0 3 0 1 0 1
000070 00 00 01 01 02 fe 01 00 01 02 00 fe 01 00 ff ff
       0 0 1 1 2 -2 1 0 1 2 0 -2 1 0 -1 -1
000080 ff 02 00 00 ff ff 00 01 01 fa 00 00 fe ff 00 01
       -1 2 0 0 -1 -1 0 1 1 -6 0 0 -2 -1 0 1
000090 02 ff ff fe 02 ff 02 02 01 01 ff 02 fe ff 02 00
       2 -1 -1 -2 2 -1 2 2 1 1 -1 2 -2 -1 2 0
0000a0 01 00 01 fa 00 00 00 ff 01 00 00 01 01 ff fe 01
       1 0 1 -6 0 0 0 -1 1 0 0 1 1 -1 -2 1
0000b0 fe 01 00 02 00 01 01 04 00 04 00 00 00 01 00 fd
       -2 1 0 2 0 1 1 4 0 4 0 0 0 1 0 -3
0000c0 00 00 00 01 01 01 00 00 00 03 ff fe ff 00 01 00
       0 0 0 1 1 1 0 0 0 3 -1 -2 -1 0 1 0
0000d0 00 fe fe fe 01 ff 00 ff ff 00 00 00 00 00 ff 01
       0 -2 -2 -2 1 -1 0 -1 -1 0 0 0 0 0 -1 1
0000e0 01 00 00 ff 01 01 ff ff ff 01 00 ff ff 02 00 01
       1 0 0 -1 1 1 -1 -1 -1 1 0 -1 -1 2 0 1
0000f0 01 00 fd 01 00 00 01 ff 03 ff 00 02 00 00 00 02
       1 0 -3 1 0 0 1 -1 3 -1 0 2 0 0 0 2
