LibSherpaKwsModel/src/main/assets/sherpa-onnx-kws-zipformer-wenetspeech-3.3M-2024-01-01/joiner-epoch-12-avg-2-chunk-16-left-64.int8.onnx (onnx, 65242 bytes, 2 tensors)

output_linear.bias f4 [197]
00000000: 4701 98bd 8148 2dbf 044a 2dbf d597 03bf
00000010: fd48 b1be 778b 2b3f be3e 893f a281 2dbd
00000020: 2236 9d3f 5a97 0140 e389 013f c56d 513f
00000030: e690 a63e cfbe 423d 4545 86be 8d98 7abe
00000040: 6c1b 94be ef77 923d bfaf cabe 5a7e 333f
00000050: 65ed da3e e3c6 883f 33e4 2bbf 73b2 223e
00000060: 9fef 043e fdaf ad3f 32f1 9a3c 6358 92be
00000070: 92b9 523f 535b 343f 4c72 363f da6f 833e
00000080: de2d d03e c094 92be f2d4 39bf 0e48 a13f
00000090: 3a04 1a3f 4504 16c0 7f7b 323f b02f 893b
000000a0: c01c 3cbe 039f e7be b537 873e 0005 653f
000000b0: 34e7 523f 4a18 a93e cdb9 a1be 55b9 a73f
000000c0: db7c 19be afa1 f9bd b642 0f3e 8fa7 043e
000000d0: cf7d b03d 1d7e b43e 960f 443f 9b2a 1c3e
000000e0: 1889 33bf 95a9 393c efcd ea3e 403e 463f
000000f0: c6fe 09bf be8d 2a3f 243c c63c fe7e c9be
00000100: e9bb d23f 3c77 07bf 6040 973d b044 70bf
00000110: a799 26bf 84f8 a83f 2304 2cbe 8a7a 943c
00000120: ece8 8bbe 5b5c cb3e b002 a23e 9b37 273f
00000130: bf5f cabf 0b23 e33e b729 40bf 72c2 ca3f
00000140: bfb5 f23e 9688 05c0 75e5 de3d b05b 9ebe
00000150: b88b 693e 0a26 45bf fc2c 82bf b41b f93e
00000160: 05ee 3abf 2d98 14bf c065 7abd 07c0 92bf
00000170: 2845 023d 63e7 fabe c648 14bf 61a4 4ebe
00000180: d44e 7abe 2b46 4fbf 7a73 05be ed9f 44bd
00000190: 548f 93bf 19a6 a1be ac33 853e 60e2 0f3f
000001a0: edcc a63f 3f16 debe 46b8 253e 574e d43e
000001b0: 090d 5a3e 45d6 a53e 1727 ad3e 8001 a23d
000001c0: 2ee4 84be b44f 86be 1cfd cdbe 4e95 093f
000001d0: 0c84 84bf 754e edbe 19ad e5be facf c9be
000001e0: 7a9b 23be 6373 ac3f 236a 643f f720 d33e
000001f0: 0789 273f 7a69 4e3f effa bebd 60d5 02bf
00000200: 572c 75bf a3a4 2ebf ff07 e1be 2e6f 713d
00000210: 40bd 50be 3e60 673f be90 05bf 16dd b43f
00000220: f395 383f df68 2ebf 389d 91be 0dcc 1c3e
00000230: 1811 60bf cbcd 15c0 6c2b 0f3f 9251 41be
00000240: 778f bfbd aa26 3cbe d635 37bd 674d 413e
00000250: 47cd c0be 771d 4b3f 8067 2bbf 6279 053f
00000260: dc3c 97bf bbb4 d1bd f4ed fbbe d1c9 9cbe
00000270: f5cf 70bf d688 963e e9f2 ecbe 60a8 82bf
00000280: 2da7 46bf 7819 8d3e cc9d ca3f e82c 323e
00000290: 8fa7 72bf 4f4a 8ebf 1f0b bf3f fa3e 37bf
000002a0: 42a4 7abd 118c 3bbf 096d b8be 1df3 75bf
000002b0: 2614 8a3e bf6f 43be 7d57 f4bf 3cc6 a43e
000002c0: d6c1 8abf 3d29 a1bf 0bf3 5bbf 8d39 d2bf
000002d0: 5865 58bf 6c37 76bf 75f8 83bf 4e27 b3bf
000002e0: f4f9 3cbf ae7e 6bbf 1fe0 d7bf 4d81 89bf
000002f0: e6cb a5bf 1095 74bf f3bf 6ebf b059 01c0
00000300: 5da3 32bf 6c6f 54bf ae26 39bf 07b9 083f
00000310: 84fc 1abf
-0.07422119 -0.6768876 -0.67691064 -0.5140355 -0.34625998 0.6700968 1.0722272 -0.042359956
1.2282145 2.0248628 0.50601023 0.8180812 0.32532424 0.04754525 -0.26224723 -0.24472256
-0.2892717 0.07151782 -0.3958721 0.7011467 0.42759243 1.0685695 -0.6714508 0.15888385
0.12982033 1.3569332 0.018913839 -0.2858306 0.8231441 0.7045185 0.71268153 0.25671273
0.40659994 -0.28629112 -0.72590554 1.2600114 0.601627 -2.3440106 0.6971969 0.004186593
-0.18370342 -0.45238504 0.2640969 0.89460754 0.8238404 0.33026344 -0.31587067 1.3103434
-0.14989035 -0.12189042 0.13990292 0.12954544 0.08617746 0.35252467 0.7658628 0.15250628
-0.70131063 0.011331935 0.4586024 0.77438736 -0.5390438 0.6662253 0.0241986 -0.393547
1.6463596 -0.5291631 0.073853254 -0.9385481 -0.65078205 1.3200841 -0.16798453 0.018124837
-0.27326143 0.397189 0.31642675 0.6531922 -1.5810469 0.44362673 -0.7506365 1.584059
0.47404286 -2.0864615 0.10883609 -0.30929327 0.22807205 -0.7701117 -1.0169978 0.48653948
-0.7301944 -0.580447 -0.061132193 -1.1464852 0.031804234 -0.4900466 -0.57923543 -0.20179893
-0.24444133 -0.8096644 -0.13032332 -0.04800408 -1.1528115 -0.31572035 0.26015985 0.56204796
1.3031288 -0.43376347 0.16183576 0.4146602 0.21294035 0.32390037 0.33818886 0.07910442
-0.25955337 -0.26232684 -0.4023217 0.53743446 -1.0352798 -0.4634892 -0.44858626 -0.39416486
-0.15977278 1.3472713 0.8922445 0.41236088 0.6544346 0.80629694 -0.093252055 -0.51106834
-0.9577078 -0.68219966 -0.43951413 0.05894392 -0.20384693 0.9038123 -0.52173984 1.412997
0.72103804 -0.6812877 -0.2844026 0.15312214 -0.87526083 -2.3406856 0.5592563 -0.18878773
-0.093535356 -0.18374124 -0.044729076 0.18877183 -0.37656614 0.79341835 -0.66954803 0.5213834
-1.1815448 -0.1023955 -0.4920498 -0.30622724 -0.9406732 0.29401273 -0.46279076 -1.0207634
-0.7759884 0.27558494 1.5829406 0.17399943 -0.94786924 -1.1116427 1.4925269 -0.7158047
-0.061191805 -0.732606 -0.36020687 -0.96074086 0.26968497 -0.19085597 -1.9089199 0.3218249
-1.0840404 -1.259071 -0.8591773 -1.6423813 -0.8452964 -0.9617832 -1.0310198 -1.399637
-0.738189 -0.9199017 -1.6865271 -1.0742584 -1.295285 -0.9553995 -0.9326164 -2.021099
-0.6978052 -0.82982516 -0.72324646 0.5340733 -0.6054156

output_linear.weight_quantized i1 [320, 197]
00000000: fdff fff2 eded f7fb 0ff9 0000 fef3 0b0d
00000010: ff06 f006 03fe f9f8 f9f5 08f0 0de2 01f3
00000020: f81e 0911 e8fe 1716 dff8 e9dd 33ff 14fa
00000030: f904 2019 17f0 1ad0 0927 14ee 19f9 11e8
00000040: 1c18 f8e7 0d0f 1619 eb18 1000 ddfb ebf5
00000050: 00fd f2ff 20f6 f324 ef15 14eb fbea 1c04
00000060: 1118 1105 f20b 0c03 03e7 21f8 f019 09f3
00000070: 242e 091f fef9 09fa faf7 f6fa f6db e3fb
00000080: 070d fc02 0dd2 f1eb 01e1 dd02 fff4 fc1b
00000090: 051b f3fa 2a10 f0df 0202 170d e0d4 120f
000000a0: e4d5 39fd d9e4 02f1 0304 1b08 ebff 3024
000000b0: fdfe d3f0 02dd 1534 290c 1f15 2401 e73f
000000c0: 16fd 07da f901 0101 ff0b 0207 fcfc e9f7
000000d0: fefa 06e7 c5ea 050c 0f14 0b25 1dff 060d
000000e0: f20e 011f ea19 0100 f609 03fc 050b 0bf8
000000f0: 07f9 f6ff 02fc dff1 1c0f 0aff ef08 04f9
-3 -1 -1 -14 -19 -19 -9 -5
15 -7 0 0 -2 -13 11 13
-1 6 -16 6 3 -2 -7 -8
-7 -11 8 -16 13 -30 1 -13
-8 30 9 17 -24 -2 23 22
-33 -8 -23 -35 51 -1 20 -6
-7 4 32 25 23 -16 26 -48
9 39 20 -18 25 -7 17 -24
28 24 -8 -25 13 15 22 25
-21 24 16 0 -35 -5 -21 -11
0 -3 -14 -1 32 -10 -13 36
-17 21 20 -21 -5 -22 28 4
17 24 17 5 -14 11 12 3
3 -25 33 -8 -16 25 9 -13
36 46 9 31 -2 -7 9 -6
-6 -9 -10 -6 -10 -37 -29 -5
7 13 -4 2 13 -46 -15 -21
1 -31 -35 2 -1 -12 -4 27
5 27 -13 -6 42 16 -16 -33
2 2 23 13 -32 -44 18 15
-28 -43 57 -3 -39 -28 2 -15
3 4 27 8 -21 -1 48 36
-3 -2 -45 -16 2 -35 21 52
41 12 31 21 36 1 -25 63
22 -3 7 -38 -7 1 1 1
-1 11 2 7 -4 -4 -23 -9
-2 -6 6 -25 -59 -22 5 12
15 20 11 37 29 -1 6 13
-14 14 1 31 -22 25 1 0
-10 9 3 -4 5 11 11 -8
7 -7 -10 -1 2 -4 -33 -15
28 15 10 -1 -17 8 4 -7
